model.pth (torch, 14044 bytes, 9 tensors)

layer1.weight f4 [24, 24]
0	0x3e215f95	0.15759118
1	0xbe4f2e83	-0.20232587
2	0x3cbb849e	0.022890385
3	0x3ba6bdf3	0.0050885617
4	0xbd11417d	-0.035462845
5	0xbe1f4216	-0.15552554
6	0x3de8371a	0.11338635
7	0xbc10fff3	-0.008850086
8	0xbd8f4f09	-0.06997497
9	0x3d94030d	0.072271444
10	0xbe1f6b24	-0.15568215
11	0x3d1df1cd	0.038560677
12	0x3e83bd28	0.25730252
13	0xbe2b4b92	-0.16728047
14	0x3e48a8dc	0.19595665
15	0x3e0e963a	0.13924494
16	0xbd329883	-0.043602478
17	0xbd38ec95	-0.045147497
18	0xbdb871cc	-0.0900608
19	0xbe0cc01f	-0.13745163
20	0x3e258ffc	0.16168207
21	0x3e74929a	0.23884049
22	0xbaa6b52b	-0.0012718787
23	0x3e1f3016	0.15545687
24	0x3df202f1	0.11816967
25	0xbdb8d4f4	-0.090249926
26	0xbe22c3e1	-0.15895034
27	0x3deccd4e	0.11562596
28	0x3d9380c5	0.07202295
29	0x3e6a1b7f	0.22862051
30	0x3e5dfc8f	0.21678375
31	0x3e4611d5	0.1934274
32	0xbdfbada4	-0.12288979
33	0x3e2084b6	0.15675625
34	0x3cc15767	0.023601247
35	0xbdffcc98	-0.12490195
36	0xbde89e66	-0.11358337
37	0x3bf2c90a	0.0074092196
38	0xbd88c407	-0.06678014
39	0xbd6b19c1	-0.057397608
40	0xbe299f82	-0.16564754
41	0xbd22698d	-0.039651442
42	0x3e4047ae	0.18777344
43	0x3cceb27e	0.025231596
44	0xbdd7cd2f	-0.105371825
45	0xbe0916ed	-0.13387652
46	0x3e18dfa8	0.14929068
47	0xbcc59b16	-0.024121802
48	0xba25fe94	-0.00063321856
49	0xbe25bd2b	-0.16185443
50	0xbd3f7ba6	-0.04674878
51	0x3e28ca76	0.16483483
52	0xbe2f46ed	-0.171169
53	0x3dba290d	0.09089861
54	0xbc8953fa	-0.016763676
55	0x3cc99549	0.024607318
56	0x3d15b5be	0.036550276
57	0xbdd615ea	-0.104533985
58	0xbe3e7b9d	-0.18601842
59	0x3e0597b1	0.13046147
60	0x3bf42b87	0.007451478
61	0xbd128bf3	-0.035777997
62	0x3c5d11e4	0.013493035
63	0x3e6f2dd5	0.23357327
64	0xbd93adb2	-0.07210864
65	0x3df8c334	0.12146607
66	0xbdb23348	-0.08701187
67	0xbcdfeeef	-0.027335612
68	0x3d8da5cf	0.06916391
69	0x3aa5d921	0.001265321
70	0xbe152048	-0.14563096
71	0xbe497d0f	-0.19676612
72	0xbdc96029	-0.09832794
73	0x3dbac272	0.09119119
74	0x3e4885d5	0.19582303
75	0xbdff0963	-0.12452962
76	0x3e2a8d73	0.16655521
77	0xbdeb80d8	-0.11499184
78	0x3dcf42f6	0.10120194
79	0xbdfb92c5	-0.122838534
80	0x3ca1d0fa	0.019752968
81	0xbdd35f40	-0.10320902
82	0xbde9a18b	-0.11407765
83	0x3de071e8	0.10959226
84	0xbe2170b5	-0.1576565
85	0x3e205f1e	0.15661284
86	0x3e642da1	0.22283031
87	0x3e69a810	0.22818017
88	0xbe17efed	-0.14837618
89	0xbd303604	-0.043020263
90	0x3e2637a8	0.16232169
91	0x3e411c5b	0.18858473
92	0xbde26040	-0.110535145
93	0xbd52e600	-0.051488876
94	0x3e832311	0.2561269
95	0x3d48f4c8	0.049061567
96	0xbe472388	-0.19447148
97	0x3e53717c	0.2064876
98	0x3dbc633e	0.091986164
99	0xbe74c468	-0.23903048
100	0xbe7dfd62	-0.24803689
101	0x3d30834b	0.04309396
102	0xbe541004	-0.20709234
103	0x3dbad3c0	0.09122419
104	0x3c9c4431	0.019075485
105	0xbc68df4d	-0.014213395
106	0x3dcabd37	0.09899371
107	0xbd46ff87	-0.048583534
108	0x3c978b33	0.018498993
109	0x3d80e400	0.062934875
110	0xbe83ab82	-0.25716788
111	0xbe1eb362	-0.15498117
112	0xbe1e3c18	-0.15452611
113	0xbcedb56a	-0.029017169
114	0xbce8df48	-0.028426781
115	0x3b773f96	0.003772711
116	0xbe1637c0	-0.14669704
117	0xbddaf07e	-0.106904015
118	0xbdc7d53e	-0.097574696
119	0x3d473136	0.048630916
120	0xbda9049a	-0.08252831
121	0x3d3f79eb	0.04674713
122	0xbbc729be	-0.006077974
123	0x3e0785c2	0.13234618
124	0xbe7502db	-0.2392687
125	0xbd922c17	-0.07137316
126	0xbe959842	-0.29217726
127	0xbe015770	-0.12631011
128	0x3cedc93c	0.02902662
129	0xbdb036f6	-0.08604233
130	0x3ae9859f	0.0017816311
131	0xbe1a875d	-0.150907
132	0xbd9230bb	-0.07138201
133	0xbd6be5b6	-0.057592116
134	0xbdd4ef93	-0.10397258
135	0x3e18317a	0.14862624
136	0x3c2e0d42	0.010623278
137	0x3e1f223d	0.15540405
138	0xbdb80306	-0.08984952
139	0xbda2b2d2	-0.079442635
140	0x3d806b9d	0.062705256
141	0xbd469092	-0.048477717
142	0x3e2027c8	0.15640175
143	0x3e53b6ce	0.20675203
144	0x3d923fa3	0.07141044
145	0x3e4dd3f0	0.20100379
146	0x3d587a8d	0.05285125
147	0x3ca1b891	0.019741328
148	0xbceaf5eb	-0.028681716
149	0xbcfdede9	-0.030997233
150	0x3dce4f60	0.10073733
151	0xbc2bb218	-0.010479473
152	0x3e714a25	0.2356344
153	0xbdf607e1	-0.120132215
154	0xbd10d2cf	-0.035357293
155	0xbd8edb9a	-0.069754794
156	0xbe1d3713	-0.1535304
157	0x3e3227ee	0.17398044
158	0xbc2189a5	-0.009859477
159	0x3d804148	0.062624514
160	0xbcd2e7eb	-0.025745353
161	0x3daa387b	0.08311554
162	0xbdd8ce75	-0.105862536
163	0x3daadabd	0.08342502
164	0xbe05a172	-0.13049868
165	0xbe11829a	-0.14209977
166	0xbd944a22	-0.07240702
167	0xbe7595e5	-0.23982961
168	0xbc8f851e	-0.01751953
169	0x395744fa	0.00020529694
170	0x3dcd365b	0.10020133
171	0x3ddcfd68	0.10790521
172	0x3cda027f	0.026612518
173	0x3deb84bf	0.11499929
174	0xbdc3965f	-0.095501654
175	0xbe081a6c	-0.13291329
176	0x3da13b33	0.078726195
177	0x3e3931e2	0.18085435
178	0x3d77bda4	0.06048359
179	0x3e4307a7	0.19045888
180	0xbc4cc3cd	-0.012497854
181	0x3ba9b041	0.005178482
182	0xbca63305	-0.020288
183	0xbcb1edc4	-0.02171982
184	0xbd95d7a8	-0.07316524
185	0x3d2af6f0	0.041739404
186	0x3d15a4f8	0.03653428
187	0xbcedea1d	-0.029042298
188	0x3d87ab49	0.06624467
189	0x3e3d762a	0.18502107
190	0xbe13c32f	-0.14429925
191	0xbe8c6eb3	-0.27428207
192	0xbdae9903	-0.085252784
193	0x3d1cdd29	0.038296852
194	0x3deb05de	0.114757285
195	0xbe4ead43	-0.20183282
196	0x3d8389f7	0.06422799
197	0xbe19670f	-0.1498072
198	0x3e712be6	0.23551902
199	0xbe041cbe	-0.1290159
200	0xbe13e29e	-0.14441916
201	0xbde3d625	-0.11124829
202	0xbdf768af	-0.12080514
203	0xbdd6a712	-0.10481085
204	0x3d4ee80c	0.050514266
205	0xbd8caeca	-0.06869276
206	0xbddaa791	-0.10676492
207	0xbdfe8095	-0.12426869
208	0x3e3bdafb	0.18345253
209	0x3e1b7ad6	0.15183577
210	0x3af1a3e5	0.0018435685
211	0x3dc10d2a	0.09426339
212	0xbe2d17b9	-0.1690358
213	0xbe2318f6	-0.1592749
214	0xbe4fdc27	-0.20298825
215	0xbe9b98c9	-0.30390003
216	0xbddad494	-0.10685077
217	0x3dce26a5	0.100659646
218	0x3d925ca7	0.07146578
219	0xbc64ceb6	-0.013965299
220	0x3e304367	0.17213212
221	0x3e028b83	0.12748532
222	0xbe13d6dc	-0.14437431
223	0x3e42fc14	0.19041473
224	0xbbfd8314	-0.007736573
225	0xbdafae94	-0.0857822
226	0xbd241e19	-0.040067766
227	0x3e0d83d5	0.13819821
228	0x3df8bb45	0.12145094
229	0xbe31736a	-0.17329183
230	0xbdf6fc22	-0.12059809
231	0x3d9b53e0	0.07584357
232	0xbe6b673c	-0.229886
233	0xbcfcef53	-0.030875837
234	0x3e18c19e	0.14917609
235	0xbdb74f5b	-0.08950683
236	0x3d3af0f8	0.045639962
237	0x3dd9cbe3	0.106345914
238	0xbd8569cd	-0.065143205
239	0xbe962d4b	-0.2933143
240	0xbdb3bfcd	-0.087768175
241	0xbd33f13a	-0.043931223
242	0x3d66378d	0.05620532
243	0x3d1e5864	0.038658515
244	0x3ccca780	0.024982214
245	0x3e2777d5	0.16354306
246	0xbd5fae42	-0.054609545
247	0x3db310bc	0.08743426
248	0xbc81fc18	-0.015867278
249	0xbdd391e0	-0.10330558
250	0x3e0ad393	0.13557272
251	0xbc452b6b	-0.012034277
252	0x3e250748	0.16116059
253	0xbe047694	-0.12935859
254	0x3e05a8c8	0.13052666
255	0xbe5db1f7	-0.2164992

layer1.bias f4 [24]
0	0x3e1663e1	0.14686538
1	0x3e3bdff0	0.18347144
2	0x3e20d374	0.15705663
3	0xbdf432dd	-0.11923764
4	0xbda75f89	-0.08172519
5	0x3de88935	0.11354295
6	0x3c482128	0.012214936
7	0xbc0410aa	-0.008060614
8	0x3e74f97a	0.23923293
9	0x3dd797ff	0.10527038
10	0xbb038d55	-0.0020073254
11	0x3dfdc95a	0.123919204
12	0x3dc7c46f	0.097542636
13	0x3dbfb5fa	0.09360881
14	0x3db1a8c3	0.08674767
15	0x3d962e21	0.07333017
16	0x3e03c026	0.12866268
17	0xbe1d3537	-0.15352331
18	0x3d8787ba	0.06617685
19	0x3d60aba5	0.054851193
20	0xbc446bac	-0.011988562
21	0x3dc6167a	0.09672256
22	0xbd6b8dc6	-0.057508253
23	0xbd820594	-0.0634872

layer2.weight f4 [36, 24]
0	0xbda5e2f5	-0.08099929
1	0x3c6d0b71	0.01446806
2	0x3d6dbda6	0.05804219
3	0xbde78a8a	-0.11305721
4	0xbded0928	-0.11574012
5	0x3de897b3	0.11357059
6	0xbdc75470	-0.09732902
7	0xbe1b8e07	-0.15190898
8	0x3ddaad26	0.10677557
9	0x3df6be82	0.12048055
10	0xbddc53bd	-0.10758159
11	0x3d36e62e	0.04465311
12	0xbd96e7de	-0.07368444
13	0xbdcb0a80	-0.09914112
14	0x3e1f92ce	0.15583345
15	0x3e14eb2f	0.1454284
16	0x3c0a28ce	0.00843258
17	0x3d9f93cf	0.07791864
18	0xbe0ae63b	-0.13564388
19	0xbe022458	-0.12709177
20	0x3d2fa9e9	0.04288665
21	0x3e1aebe1	0.15129043
22	0x3cc67b0f	0.0242286
23	0xbd3f29a4	-0.04667057
24	0xbbf817bb	-0.0075711883
25	0x3da66d02	0.0812626
26	0xbe03896a	-0.12845388
27	0xbd0c7a9d	-0.03429662
28	0x3dd35577	0.103190355
29	0x3e01d283	0.1267796
30	0xbe92def3	-0.28685722
31	0xbdae5533	-0.08512344
32	0x3d930c1b	0.07180043
33	0x3e115082	0.14190868
34	0xbdc0671b	-0.09394666
35	0xbd51dbe9	-0.051235113
36	0x3e5cacea	0.21550336
37	0x3df8a332	0.12140502
38	0xbc8c78b4	-0.0171474
39	0xbe01bf47	-0.12670623
40	0x3d8c4e7b	0.068509065
41	0xbd9694a0	-0.07352567
42	0xbd324b82	-0.04352904
43	0x3da0b2cd	0.078466035
44	0xbd9a6a73	-0.07539835
45	0x3e59e7cc	0.2127983
46	0xbe7922e2	-0.24329713
47	0x3e27cfca	0.16387859
48	0xbe89bcf2	-0.26901966
49	0xbe61a48b	-0.22035424
50	0x3de81c69	0.11333544
51	0xbe1f62f4	-0.15565091
52	0xbe71a640	-0.23598576
53	0xbd622d27	-0.055218842
54	0xbdeef9a2	-0.116687074
55	0xbcb4a24a	-0.022050042
56	0xbd953174	-0.07284823
57	0x3d854a2d	0.065082885
58	0x3aad21bc	0.0013208906
59	0x3d9ce232	0.07660331
60	0xbdb6ce91	-0.08926118
61	0xbdcd310f	-0.10019123
62	0x3d515c00	0.05111313
63	0x3acaa035	0.0015459122
64	0x3e51fad8	0.20505846
65	0x3e21b3c0	0.15791225
66	0xbdcb85dc	-0.09937641
67	0x3d28a2bd	0.041170824
68	0x3d6ccecb	0.0578144
69	0xbe5b69cc	-0.21427077
70	0x3e182d9f	0.14861153
71	0xbcc484cd	-0.023989106
72	0xbbff04de	-0.0077825626
73	0xbe255c15	-0.16148408
74	0x3e0cdedd	0.1375689
75	0xbe622767	-0.22085343
76	0xbde7692a	-0.11299355
77	0xbe4b30bc	-0.1984281
78	0x3def9e4d	0.11700115
79	0x3c202357	0.009774051
80	0xbd889309	-0.0666867
81	0xbe253177	-0.1613215
82	0xbdcf9d96	-0.10137479
83	0xbdc125d6	-0.09431045
84	0xbe4322f8	-0.19056308
85	0xbe8f92d2	-0.28041703
86	0x3e13ffa7	0.14452992
87	0xbd132655	-0.03592523
88	0x3db7f83a	0.08982892
89	0x3d70f2de	0.058825366
90	0xbca8b855	-0.020595709
91	0xbe6aec21	-0.22941639
92	0xbe80a055	-0.25122324
93	0x3e21540f	0.15754722
94	0x3e4c66e8	0.1996113
95	0xbce5f371	-0.028070183
96	0xbc24a92d	-0.0100501
97	0xbdbe98fc	-0.09306523
98	0xbae47fbf	-0.0017433091
99	0x3e073ea6	0.13207492
100	0xbda35ac4	-0.079762965
101	0xbe2bf615	-0.16793092
102	0xbdf42a79	-0.119221635
103	0x3e21f928	0.15817702
104	0x3ddc7473	0.107643984
105	0x3e0174ca	0.12642208
106	0x3e1aed7e	0.15129659
107	0x3e43f730	0.19137263
108	0xbe866ba1	-0.2625399
109	0x3e159a18	0.14609563
110	0x3e35124e	0.17682764
111	0x3e44f6f9	0.19234838
112	0xbd68018c	-0.0566421
113	0x3e7d7ffc	0.24755853
114	0xbde28181	-0.11059857
115	0x3e332719	0.17495383
116	0xbe1042c9	-0.14087977
117	0xbe03a6b1	-0.12856556
118	0xbe29c681	-0.1657963
119	0xbe3e9e0f	-0.18614982
120	0x3bcb8b2c	0.006211659
121	0x3e69c013	0.22827177
122	0x3e4e8e2a	0.20171419
123	0x3e334c65	0.17509611
124	0x3dc200ec	0.09472832
125	0x3e4a8f0e	0.19781134
126	0xbe1f940e	-0.15583822
127	0x3d55aa0d	0.052164126
128	0xbe87e752	-0.2654367
129	0xbd7d8e8d	-0.061903525
130	0xbe1b4a02	-0.1516495
131	0x3e44fcec	0.19237107
132	0x3da5ffdd	0.08105443
133	0xbe2783c8	-0.16358864
134	0x3d3779e1	0.044793967
135	0x3cbb1355	0.022836367
136	0xbda91a53	-0.08256974
137	0xbb51aa57	-0.00319924
138	0xbc5e9c26	-0.013587033
139	0x3d805e0b	0.06267937
140	0x3d99a522	0.075022
141	0x3df8ec05	0.12154392
142	0xbe2b8f3c	-0.16753858
143	0x3c91b94f	0.017788557
144	0xbe4ae16a	-0.19812551
145	0xbcc8ec47	-0.024526728
146	0x3d8b9899	0.06816215
147	0xbe03f266	-0.12885436
148	0xbe0d5783	-0.13802914
149	0xbb88880c	-0.0041666087
150	0xbc21bbe5	-0.009871458
151	0x3e81dad4	0.25362265
152	0x3d49bba1	0.049251202
153	0x3e5c437c	0.21510118
154	0x3e2e91df	0.17047833
155	0xbd4e36d0	-0.050345242
156	0x3e5c5fc2	0.21520904
157	0xbdb53a5d	-0.088490225
158	0xbdbc879b	-0.09205552
159	0xbdae0232	-0.084965125
160	0xbd5cdc78	-0.053921193
161	0xbe02894d	-0.12747689
162	0x3e2e5fc0	0.17028713
163	0xbe122b76	-0.14274392
164	0x3e6cd8e8	0.23129618
165	0xbd007c43	-0.031368505
166	0x3d027ec9	0.031859193
167	0xbdd41210	-0.10355008
168	0x3da54c28	0.08071166
169	0x3ddcca0b	0.10780724
170	0xbe5d69d1	-0.21622397
171	0xbdf080f0	-0.11743343
172	0x3c9b63ac	0.018968426
173	0xbd857d34	-0.06518021
174	0xbdf178fa	-0.117906526
175	0xbe666d83	-0.22502713
176	0x3d50f552	0.051015206
177	0x3e222e32	0.15837935
178	0x3da14176	0.07873814
179	0xbcdeac03	-0.027181631
180	0x3d5302d9	0.051516388
181	0x3c813338	0.015771493
182	0x3e4b52b4	0.19855767
183	0x3e883496	0.2660262
184	0xbcf71942	-0.030163411
185	0xbc8b8b8e	-0.017034318
186	0x3d1972f9	0.037463162
187	0xbd939acf	-0.07207262
188	0xbe1a1f5d	-0.15051027
189	0x3e850887	0.25983068
190	0x3b588739	0.0033039583
191	0xbe62193e	-0.22079942
192	0xbda182ff	-0.07886314
193	0x3b2271ec	0.002478714
194	0x3e00dd2d	0.12584372
195	0xbe0c4c9f	-0.13701104
196	0x3df05fb3	0.11737003
197	0x3dcf3995	0.10118405
198	0xbe3223d9	-0.17396487
199	0xbd8f17bb	-0.06986948
200	0xbcc7d24b	-0.024392268
201	0xbd397e3e	-0.04528641
202	0xbe799309	-0.24372496
203	0x3d89d491	0.06729997
204	0xbd758d9f	-0.059949514
205	0xbe5afc01	-0.21385194
206	0x3e332d83	0.1749783
207	0x3d8f083c	0.069839925
208	0x3de09f27	0.10967856
209	0xb99459d8	-0.000282957
210	0x3e2ad319	0.1668209
211	0x3c99ce2f	0.018775074
212	0x3e4fab6a	0.20280233
213	0x3dff7551	0.12473548
214	0xbe73bed6	-0.23803267
215	0x3d368598	0.044561
216	0x3d8927b4	0.06697026
217	0x3dd25c75	0.10271541
218	0x3c953d77	0.018217785
219	0xbd4bdd3c	-0.049771532
220	0xbdeddcf7	-0.11614411
221	0x3e16c48c	0.14723414
222	0x3e18c884	0.1492024
223	0xbd19d3ea	-0.037555613
224	0x3d584ebd	0.052809466
225	0x3e076e09	0.13225569
226	0x3da4eacf	0.08052599
227	0x3e2c19ab	0.16806667
228	0xbe6c83d5	-0.23097165
229	0x3e62fbef	0.22166418
230	0x3e558b8c	0.20854014
231	0xbdae8f6c	-0.08523449
232	0x3de2db1f	0.1107695
233	0xbca34196	-0.019928735
234	0x3dde8a74	0.108662516
235	0x3e89cdff	0.26914975
236	0xbe443bfe	-0.1916351
237	0x3d12db66	0.035853766
238	0x3de90620	0.113781214
239	0x3e348b1d	0.17631193
240	0xbd562b31	-0.052287284
241	0x3dab9fcd	0.08380089
242	0x3dee6592	0.11640467
243	0xbe2e8ff7	-0.17047106
244	0xbdf12191	-0.117739804
245	0x3dd89f37	0.10577243
246	0x3e3aa261	0.18226005
247	0x3e8305a2	0.25590235
248	0x3e90d927	0.28290674
249	0x3e1ba017	0.15197788
250	0xbdbca892	-0.0921184
251	0xbda2d6ab	-0.07951101
252	0xbd11ae99	-0.0355669
253	0x3e4379ab	0.19089381
254	0x3e6b2bdd	0.22965951
255	0x3df7a41c	0.12091848

layer2.bias f4 [36]
0	0xbda0b3e9	-0.07846815
1	0x3ba215ee	0.004946462
2	0x3d0872c5	0.033312578
3	0xbddabfd3	-0.10681119
4	0xbdd45cbc	-0.1036925
5	0x3e6ed4c4	0.23323351
6	0x3dd71257	0.10501545
7	0x3e346950	0.17618299
8	0xbbb33a6b	-0.0054696104
9	0x3e052582	0.1300259
10	0xbd4949ff	-0.049142834
11	0x3e709f07	0.23498164
12	0xbcbfc052	-0.023407135
13	0x3e271609	0.16317
14	0xbce2ac1f	-0.027669964
15	0xbd79062c	-0.0607969
16	0x3dd547da	0.10414095
17	0xbca1f652	-0.019770775
18	0x3e317f1e	0.17333648
19	0xbe058194	-0.13037711
20	0x3d866d8f	0.065638654
21	0x3e31a67a	0.17348662
22	0x3e08f6fb	0.13375466
23	0xbe19e21b	-0.15027659
24	0xbcf04d25	-0.02933366
25	0xbe199a2b	-0.15000217
26	0xbda87f2c	-0.08227381
27	0x3e8330d1	0.2562318
28	0xbda13338	-0.07871097
29	0x3e6bf619	0.23043098
30	0x3c43b2d3	0.0119444905
31	0xbce5ed61	-0.028067293
32	0x3e4cbbd8	0.19993532
33	0x3e632543	0.22182183
34	0xbda13801	-0.0787201
35	0x3d13243a	0.03592322

layer3.weight f4 [24, 36]
0	0x3de730ec	0.11288628
1	0x3ce41317	0.027841134
2	0xbe083f51	-0.13305403
3	0xbd802383	-0.06256773
4	0x3c8c10a3	0.017097777
5	0x3e261d53	0.16222124
6	0x3dd9eee7	0.1064127
7	0x3e60cb61	0.21952583
8	0x3dd69d75	0.10479251
9	0xbce6ab8f	-0.028157977
10	0xbd8a10e9	-0.067415066
11	0x3e03a1da	0.1285471
12	0xbd5d2e1e	-0.05399906
13	0xbdf9998d	-0.121874906
14	0x3da1a881	0.07893468
15	0x3cfde284	0.0309918
16	0x3e257988	0.16159642
17	0xbdd02f07	-0.1016522
18	0x3ddabde0	0.10680747
19	0x3dd7c536	0.10535662
20	0xbc2f276c	-0.010690551
21	0x3e826f2e	0.25475448
22	0xbdb48fce	-0.08816491
23	0x3e2ce27d	0.16883273
24	0x3c3fd5c0	0.011708677
25	0x3e2661ad	0.16248198
26	0xbc9c5a4e	-0.01908603
27	0x3e0fdc9e	0.14049003
28	0xbe1d8365	-0.15382154
29	0x3d4cff7a	0.05004833
30	0x3d5be5cd	0.053685952
31	0x3e53af40	0.20672321
32	0x3d1def6d	0.038558412
33	0x3d30d8b2	0.043175407
34	0x3df73a41	0.12071658
35	0x3ccab41d	0.024744088
36	0xbde07fc1	-0.10961867
37	0xbdff8dd8	-0.124782264
38	0xbd7a99f7	-0.06118199
39	0x3e743529	0.23848404
40	0xbcc84066	-0.02444477
41	0xbe13a84f	-0.14419673
42	0x3e3ef2c2	0.18647292
43	0xbcf52571	-0.02992508
44	0xbe382c64	-0.17985684
45	0xbd84f01f	-0.06491112
46	0x3e813ee7	0.25243303
47	0x3e023eff	0.12719344
48	0x3e2a37e6	0.16622886
49	0x3e0a0169	0.134771
50	0x3ca66944	0.020313866
51	0x3e5498cc	0.20761412
52	0xbdad0828	-0.08448821
53	0x3dfab088	0.12240702
54	0x3d5c4262	0.053774245
55	0x3e34b149	0.17645754
56	0xbd0eea6e	-0.03489154
57	0x3d114067	0.03546181
58	0x3d4ab956	0.049493156
59	0x3ddeb05b	0.10873481
60	0xbe3b3866	-0.18283233
61	0xbde96733	-0.11396637
62	0xbd929657	-0.07157581
63	0x3e2545e9	0.1613995
64	0x3e09ae41	0.13445379
65	0xbd863392	-0.06552805
66	0xbe07582f	-0.13217233
67	0xbe2302c9	-0.15919031
68	0x3e64ec2e	0.2235572
69	0x3e2f2d71	0.17107178
70	0xbe538523	-0.20656256
71	0xbdff39f6	-0.12462227
72	0x3d29e768	0.04148045
73	0xbe51d696	-0.20492014
74	0x3e4b8312	0.19874218
75	0xbc73a00b	-0.0148697
76	0xbd51a0a7	-0.0511786
77	0xbe2a891e	-0.16653869
78	0x3e6a6f8f	0.22894119
79	0xbe4c89ed	-0.1997449
80	0x3d4bcaed	0.049754072
81	0x3ddb5c9d	0.10711024
82	0x3df80be6	0.121116444
83	0xbb364eb4	-0.0027817907
84	0x3e28e964	0.16495281
85	0x3d989f9f	0.0745232
86	0xbd77094e	-0.060311608
87	0x3defd47c	0.1171045
88	0xbd16053c	-0.036626086
89	0x3df7c0fc	0.12097356
90	0x3e05e4e8	0.13075602
91	0x3e6738b0	0.22580218
92	0xbd16e7a5	-0.036842007
93	0xbd7992dc	-0.06093107
94	0x3e6acbc1	0.22929288
95	0xbdaa6687	-0.08320337
96	0x3c902b2b	0.01759871
97	0x3d2ad705	0.041708965
98	0x3d3ce986	0.046121143
99	0xbdc14bed	-0.0943831
100	0x3d86d24e	0.06583081
101	0x3e499267	0.19684754
102	0x3d99c5ea	0.07508452
103	0x3d88d6d1	0.06681598
104	0x3e11a37e	0.14222524
105	0x3db51a01	0.088428505
106	0x3b80e5f0	0.0039336607
107	0xbd790c35	-0.060802657
108	0xbc6d7ba0	-0.0144948065
109	0x3e42f0ac	0.19037122
110	0xbcd99a14	-0.026562728
111	0xbc5c99d9	-0.0134644145
112	0x3d60e3a4	0.054904595
113	0x3b708b74	0.0036704214
114	0x3d4bf03e	0.04978966
115	0xbc9f396b	-0.019436559
116	0x3bd0b6c4	0.0063694436
117	0xbd1a228c	-0.037630603
118	0xbe279a52	-0.16367462
119	0xbdf15b36	-0.11784975
120	0xbdb48f10	-0.088163495
121	0x3d627618	0.055288404
122	0xbd3b5082	-0.045731075
123	0xbc891335	-0.016732791
124	0x3daae49d	0.08344386
125	0x3c241398	0.010014437
126	0x3db102c0	0.08643103
127	0x3d50ac89	0.050945792
128	0xbe35dc71	-0.17759873
129	0x3e6d0ab4	0.23148614
130	0x3e09cffa	0.13458243
131	0x3e108488	0.14113057
132	0xbb21635e	-0.0024625878
133	0x3e05c040	0.13061619
134	0x3e02f51d	0.12788816
135	0x3df96221	0.1217692
136	0xbe1f7427	-0.15571652
137	0xbda982c4	-0.08276895
138	0x3e5f89cd	0.2182991
139	0x3dc03ac0	0.09386206
140	0x3c898301	0.0167861
141	0x3d95631b	0.072942935
142	0x3df6ae09	0.12044913
143	0x3df8fe91	0.1215793
144	0x3daad67e	0.083416924
145	0xbdb17b3b	-0.086660825
146	0x3e144b63	0.14481883
147	0x3d776d7d	0.06040715
148	0x3dd8e3e3	0.10590341
149	0xbd75e065	-0.060028452
150	0xbd75b149	-0.059983525
151	0xbdb50656	-0.08839099
152	0x3daef257	0.085423164
153	0x3dfc44f5	0.1231784
154	0xba8c5b9c	-0.0010708454
155	0x3e0d7856	0.13815436
156	0x3d416131	0.04721183
157	0x3e04bcd6	0.1296266
158	0x3e08bdc5	0.13353641
159	0x3e48ad2d	0.19597311
160	0x3d7b09b4	0.06128855
161	0xbd49acfb	-0.049237233
162	0xbd8e79ae	-0.06956802
163	0x3e6be3d9	0.23036136
164	0x3e23346e	0.15937969
165	0xbe0b683b	-0.1361398
166	0x3e05387d	0.1300983
167	0x3d508253	0.050905537
168	0xbe4f7968	-0.20261157
169	0xbd702772	-0.058631368
170	0x3de25109	0.110506125
171	0x3e4966ce	0.19668123
172	0x3dc73a2c	0.09727892
173	0x3dceac59	0.100914665
174	0xbd401431	-0.046894256
175	0xbcabc93e	-0.020969983
176	0xbc3b2555	-0.011422475
177	0x3ddc5314	0.107580334
178	0xbd528fdd	-0.05140673
179	0xbd86a6a6	-0.065747544
180	0xbba3828e	-0.0049899286
181	0xbe171ffd	-0.14758296
182	0x3e10950e	0.1411936
183	0x3bf80cda	0.0075698914
184	0x3d335b49	0.04378823
185	0xbd184cf4	-0.037182763
186	0x3d395795	0.04524954
187	0x3dfd78b1	0.12376536
188	0x3e257c07	0.16160594
189	0xbd5f11f8	-0.054460496
190	0x3d5afb57	0.053462353
191	0x3d90350a	0.070413664
192	0xbd783cf0	-0.06060499
193	0xbdc7554e	-0.097330675
194	0x3b4cccc7	0.0031249986
195	0xbda4cf9c	-0.08047411
196	0x3d67fbc7	0.056636598
197	0x3aad37fd	0.0013215538
198	0xbe1b60ba	-0.15173617
199	0xbe3997df	-0.1812434
200	0x3c276939	0.010217958
201	0xbd9967c8	-0.07490498
202	0x3d2f8d94	0.04285963
203	0x3d7e257d	0.06204747
204	0x3da944cb	0.08265074
205	0x3def6d8b	0.116908155
206	0x3d4d0732	0.05005569
207	0xbe2c2714	-0.16811782
208	0xbe1b9053	-0.15191774
209	0xbc9fb28a	-0.019494314
210	0x3e25f9c1	0.16208555
211	0xbd655ba8	-0.055995613
212	0xbdc93a7e	-0.098256096
213	0xbdc3fd80	-0.09569836
214	0xbdc74472	-0.09729852
215	0xbda56685	-0.08076195
216	0xbda6bdb5	-0.081416525
217	0x3b978946	0.0046245186
218	0x3d5894b6	0.052876197
219	0xbe315a6d	-0.17319651
220	0x3e32fb36	0.17478642
221	0xbd1f4562	-0.038884528
222	0x3de4e722	0.111768976
223	0x3df44698	0.11927527
224	0x3df5cbb9	0.12001748
225	0x3c2a8af8	0.010409109
226	0x3e14a1ac	0.14514798
227	0x3d7d622d	0.061861206
228	0xbe4b884d	-0.19876213
229	0xbd696d61	-0.056989077
230	0xbdf7ee50	-0.121060014
231	0x3e0144a4	0.1262384
232	0xbd444d54	-0.04792531
233	0xbd7ccbc9	-0.061717782
234	0x3e33fe6c	0.17577523
235	0x3e0c4160	0.13696814
236	0xbe24654e	-0.1605427
237	0xbd337f89	-0.0438228
238	0xbc382c84	-0.011241082
239	0x3cad010e	0.021118667
240	0xbc8e186b	-0.017345628
241	0x3e60dc9a	0.21959153
242	0x3ddd27f6	0.107986376
243	0x3b34fe7e	0.002761751
244	0x3dc4a28f	0.09601318
245	0xbc98b411	-0.01864055
246	0x3e698128	0.22803175
247	0xbd0f590c	-0.03499703
248	0x3e109b92	0.14121845
249	0xbca895a2	-0.020579163
250	0x3c59e200	0.0132985115
251	0x3ddaf132	0.106905356
252	0xbe1fc86d	-0.156038
253	0xbd12f1ec	-0.035875246
254	0xbb447001	-0.0029973986
255	0x3e4ae2d5	0.19813092

layer3.bias f4 [24]
0	0xbc7ac588	-0.015305884
1	0x3e32b2f9	0.17451085
2	0x3d9f7a83	0.07787039
3	0x3e085397	0.13313137
4	0x3d757e90	0.059935153
5	0xbc0fa903	-0.008768323
6	0x3d870989	0.065936156
7	0x3c96c674	0.018405177
8	0xbd9434fe	-0.0723667
9	0x3d2e9147	0.042619016
10	0x3e4ba518	0.19887197
11	0xbcf4de42	-0.029891137
12	0xbcbd97d9	-0.023143696
13	0x3c5c374e	0.01344092
14	0x3d0e068d	0.034674216
15	0x3de50d5b	0.11184188
16	0x3dde6d1a	0.10860653
17	0xbdf02efb	-0.11727711
18	0xbdc92c2a	-0.09822877
19	0xbc712b43	-0.014719787
20	0xbd3e6d69	-0.04649106
21	0x3c311e97	0.010810516
22	0xbb041251	-0.002015252
23	0xbe1e1d97	-0.15440975

layer4.weight f4 [12, 24]
0	0x3e7fc0ee	0.2497594
1	0xbe3f2006	-0.1866456
2	0xbe03a8da	-0.1285738
3	0x3e6839fb	0.22678368
4	0xbd9cba1f	-0.07652687
5	0x3d558e34	0.05213757
6	0x3e598b7e	0.21244618
7	0x3ab5d812	0.0013873598
8	0x3ddb40e7	0.107057385
9	0x3e48d629	0.19612946
10	0xbd8e81ff	-0.069583885
11	0x3e7ac40c	0.24488848
12	0x3e1ccb88	0.15312016
13	0xbcb69a2d	-0.022290314
14	0x3dca1f9a	0.09869309
15	0x3e587216	0.2113727
16	0x3e6a9092	0.22906712
17	0xbe145e13	-0.14489011
18	0xbd8ceeec	-0.06881508
19	0x3df96f8a	0.121794775
20	0x3ca79b11	0.020459684
21	0xbe343954	-0.17599994
22	0x3d974bbe	0.073874936
23	0x3e311cc8	0.17296135
24	0x3988f5a5	0.0002612296
25	0x3d6c57c1	0.057700876
26	0xbcdb1749	-0.026744502
27	0xbbeadb90	-0.007167287
28	0x3e00a766	0.12563857
29	0x3285ceae	1.5577225e-08
30	0xbd1858a7	-0.03719392
31	0xbc1fe900	-0.009760141
32	0xbde8217e	-0.11334513
33	0x37513387	1.2469368e-05
34	0xbc0eb86d	-0.008710963
35	0x36ca1112	6.0220564e-06
36	0xbbe177f8	-0.0068807565
37	0xb43ee2ed	-1.7777684e-07
38	0xbda6ea1b	-0.08150121
39	0x3986916b	0.00025666817
40	0x3a8d5dc6	0.0010785393
41	0x2f7b3443	2.2846884e-10
42	0xbd84942e	-0.064735755
43	0xbc5be3f2	-0.013421046
44	0x3e152cce	0.14567873
45	0xba90b7bc	-0.0011041085
46	0xbd424f96	-0.04743918
47	0x3a83203e	0.0010004116
48	0xbe84ed23	-0.2596217
49	0x3da4b735	0.080427565
50	0x3debab1a	0.115072444
51	0xbd8130b6	-0.06308119
52	0xbda7d84d	-0.08195553
53	0xbd13d351	-0.0360902
54	0x3e604282	0.2190037
55	0x3e67d156	0.22638449
56	0xbcf5a851	-0.029987486
57	0xbbc37b74	-0.0059656445
58	0xbcccd4da	-0.02500384
59	0x3cb5d751	0.022197397
60	0xbd0f3a52	-0.034967728
61	0xbe0d1f69	-0.13781513
62	0x3e45d742	0.19320396
63	0xbe1cca07	-0.15311442
64	0xbd1aacb6	-0.037762366
65	0x3cd23b88	0.025663152
66	0x3d9cef96	0.07662885
67	0x3e3cadf2	0.1842573
68	0x3cd9abbe	0.02657115
69	0x3e48117c	0.1953792
70	0x3c4912fd	0.012272594
71	0xbe50ec84	-0.20402724
72	0xbe626a13	-0.22110777
73	0x3d142d5c	0.03617607
74	0x3e36526e	0.17804882
75	0x3ccfcbc5	0.02536572
76	0x3e39fe49	0.18163408
77	0x3e278402	0.1635895
78	0x3dab263e	0.083569035
79	0x3e888d5c	0.2667035
80	0x3e83deed	0.25756016
81	0xbd8294a8	-0.0637601
82	0x3e5bfe45	0.21483715
83	0xbd79443f	-0.0608561
84	0x3e8a945d	0.27066317
85	0xbde7f0ff	-0.11325263
86	0x3e3f58f0	0.1868627
87	0xbe368cf7	-0.17827211
88	0xbe83024a	-0.25587684
89	0xbde35843	-0.11100819
90	0x3e255114	0.1614421
91	0x3e138cad	0.14409132
92	0xbc3246b4	-0.010881115
93	0x3e6ae426	0.22938594
94	0x3e4c3e01	0.19945528
95	0x3d147cc4	0.0362518
96	0x3e270d19	0.1631359
97	0x3e0d9045	0.13824566
98	0x3cf1430b	0.029450914
99	0xbd643c22	-0.05572141
100	0xbe2ef413	-0.17085294
101	0xbdffb883	-0.12486365
102	0x3d437a64	0.047724143
103	0x3c90032b	0.017579636
104	0xbe2dd60b	-0.16976182
105	0x3b1512e1	0.0022746848
106	0x3d05c295	0.03265627
107	0x3e5016b3	0.20321159
108	0xbe4275d6	-0.18990263
109	0xbe1a400e	-0.15063497
110	0x3e134380	0.14381218
111	0x3e3db4f5	0.18526061
112	0x3e10b4bf	0.14131449
113	0xbe293f3a	-0.16528025
114	0x3e9c7818	0.30560374
115	0x3d6f36fa	0.05840204
116	0xbd9c5eaf	-0.07635247
117	0xbe5788f3	-0.21048336
118	0x3e65d56c	0.22444695
119	0xbca7eb87	-0.02049805
120	0xbe2a53a7	-0.16633473
121	0x3e5c7eda	0.21532765
122	0xbdf1aed1	-0.11800922
123	0xbe57897d	-0.21048541
124	0xbca90d94	-0.020636357
125	0x3d768abe	0.06019091
126	0x3ddebd9f	0.10876011
127	0x3e58a105	0.21155174
128	0x3e328426	0.17433223
129	0xbe6f49e8	-0.23368037
130	0x3c9be455	0.019029776
131	0xbe4d5fc0	-0.20056057
132	0x3dbcd142	0.092196
133	0x3d36ebd9	0.044658516
134	0xbc8f350c	-0.01748135
135	0xbdcdd51d	-0.10050414
136	0xbeb1133f	-0.34584996
137	0x3c7043b5	0.01466458
138	0xbe890a6a	-0.26765758
139	0xbc24ca93	-0.010058063
140	0x3dd2c75f	0.10291933
141	0xbd9b11c7	-0.0757175
142	0x3ba3404e	0.004982031
143	0x3d933498	0.07187766
144	0x3d5bcaf8	0.053660363
145	0x3e903df7	0.28172275
146	0x3e8f3fd5	0.27978387
147	0x3d185042	0.037185915
148	0x3e6c2ecb	0.23064725
149	0xbc5e8ace	-0.013582898
150	0x3dd1b9b0	0.10240495
151	0x3dca1577	0.09867375
152	0x3da2eb02	0.079549804
153	0xbd4cf842	-0.050041445
154	0x3e365915	0.1780742
155	0xbce09299	-0.027413653
156	0xbd14af20	-0.036299825
157	0x3e2e28fe	0.17007825
158	0x3d572e63	0.052534472
159	0xbe36c30f	-0.17847846
160	0xbe4574c5	-0.19282825
161	0x3e2effb3	0.17089729
162	0xbe0eb045	-0.13934429
163	0x3d8be91c	0.068315715
164	0x3e2c7be1	0.16844131
165	0x3e08ab91	0.13346697
166	0x3e2d7713	0.16939954
167	0xbe04f811	-0.12985255
168	0xbb6c500a	-0.003605845
169	0xbdb972f5	-0.090551294
170	0xbd316f9e	-0.043319337
171	0xbcd1e739	-0.02562295
172	0xbd18fe4a	-0.037351884
173	0x3c94db31	0.018170925
174	0x3db4f7d4	0.08836332
175	0xbdc3ed4e	-0.09566747
176	0x3c85a995	0.016316215
177	0xbd1db271	-0.038500253
178	0x3d4a8f3d	0.04945301
179	0xbbeca3cc	-0.0072216745
180	0x3b769c3e	0.0037629749
181	0x3d810cd0	0.06301272
182	0x3da6edb4	0.08150807
183	0xbd951afa	-0.07280536
184	0xbcbad319	-0.022805737
185	0xbc8ae413	-0.016954457
186	0x3dacca24	0.08436993
187	0xbcaf6c57	-0.021413965
188	0xbc2ce53e	-0.0105527025
189	0x3b8bb30b	0.004263287
190	0x3c28933a	0.010289008
191	0xbbc9475e	-0.006142541
192	0x3e2b58c8	0.16733086
193	0xbcdeed60	-0.027212799
194	0x3d93173f	0.07182168
195	0xbe413407	-0.18867503
196	0x3e272387	0.16322146
197	0xbe0f8114	-0.14014083
198	0xbb581139	-0.003296925
199	0x3e86b1d9	0.26307562
200	0x3e3ea236	0.18616566
201	0xbd40d6d8	-0.04707989
202	0x3e54ab3e	0.20768449
203	0xbe22e017	-0.15905796
204	0x3d970a47	0.07375007
205	0x3dd8ccbb	0.10585924
206	0x3e5f7c16	0.21824679
207	0xbd73aa30	-0.059488475
208	0xbd592bc2	-0.053020246
209	0x3e384fd0	0.17999196
210	0xbd9d6616	-0.07685487
211	0x3e155ab0	0.14585376
212	0x3da02c28	0.07820922
213	0x3e4e38df	0.20138882
214	0xbca58bf8	-0.020208344
215	0xbe281a01	-0.1641617
216	0xbc15e611	-0.00914909
217	0xb2efe515	-2.7927436e-08
218	0xb7c65fe4	-2.3648092e-05
219	0xbb1b2c47	-0.0023677514
220	0xb1275d08	-2.435458e-09
221	0xb2bf53f8	-2.2273511e-08
222	0xb956b443	-0.00020475783
223	0x3c2cc9d0	0.010546163
224	0xb20898fb	-7.951026e-09
225	0xbbbf04e7	-0.005829442
226	0xbc933122	-0.017967764
227	0x32775d94	1.43985694e-08
228	0xb184f2b0	-3.869296e-09
229	0x3810be5c	3.450956e-05
230	0x31c0fc22	5.6165996e-09
231	0xb1a7a2c5	-4.8788444e-09
232	0x32ae4efe	2.0292187e-08
233	0xb25daaca	-1.2902726e-08
234	0xb1100601	-2.095817e-09
235	0x32cdc409	2.3954287e-08
236	0x37d829a3	2.5768595e-05
237	0x32a48598	1.9152864e-08
238	0xbc515ea4	-0.012778912
239	0x31179818	2.2059847e-09
240	0xbdbee9d1	-0.09321941
241	0x3e651fdf	0.22375439
242	0x3e149108	0.1450845
243	0x3ccf94ae	0.02533945
244	0x3e5f4518	0.21803701
245	0x3ba40cf4	0.005006427
246	0xbdd1e281	-0.1024828
247	0x3df26a15	0.1183664
248	0xbda5daeb	-0.08098396
249	0xbe299c31	-0.16563489
250	0x3dd9ee16	0.106411144
251	0x3e0f1050	0.13971066
252	0x3e86d32a	0.2633298
253	0x3adfdb0c	0.0017078831
254	0x3db7c9e2	0.08974053
255	0xbbc7cd4b	-0.006097471

layer4.bias f4 [12]
0	0x3d802ceb	0.062585674
1	0xbe001590	-0.12508225
2	0x3e79a344	0.24378687
3	0x3df9b800	0.12193298
4	0x3d8bcd9f	0.068263285
5	0x3e243661	0.16036369
6	0x3d2d9c86	0.0423856
7	0xbdb31db8	-0.08745903
8	0x3d19ee53	0.0375808
9	0xbbff6775	-0.0077943155
10	0xbce6d9b9	-0.02817999
11	0x3e6046d3	0.21902017

output.weight f4 [1, 12]
0	0x3eb153b3	0.3463417
1	0x3de13a0d	0.109974004
2	0xbdd3547b	-0.10318848
3	0xbe6f1674	-0.23348409
4	0x3e414d06	0.18877038
5	0xbe75fd2c	-0.24022359
6	0xbe81147f	-0.2521095
7	0xbbee7aea	-0.007277836
8	0xbe9bee8a	-0.30455428
9	0x3d56b71b	0.052420717
10	0xbe33a87f	-0.17544745
11	0x3e8e673c	0.27813137
